Model: "sequential_1"
_________________________________________________________________
Layer (type)                 Output Shape              Param #   
=================================================================
conv2d_1 (Conv2D)            (None, 222, 222, 32)      896       
_________________________________________________________________
conv2d_2 (Conv2D)            (None, 220, 220, 64)      18496     
_________________________________________________________________
max_pooling2d_1 (MaxPooling2 (None, 110, 110, 64)      0         
_________________________________________________________________
dropout_1 (Dropout)          (None, 110, 110, 64)      0         
_________________________________________________________________
conv2d_3 (Conv2D)            (None, 108, 108, 64)      36928     
_________________________________________________________________
max_pooling2d_2 (MaxPooling2 (None, 54, 54, 64)        0         
_________________________________________________________________
dropout_2 (Dropout)          (None, 54, 54, 64)        0         
_________________________________________________________________
conv2d_4 (Conv2D)            (None, 52, 52, 128)       73856     
_________________________________________________________________
max_pooling2d_3 (MaxPooling2 (None, 26, 26, 128)       0         
_________________________________________________________________
dropout_3 (Dropout)          (None, 26, 26, 128)       0         
_________________________________________________________________
flatten_1 (Flatten)          (None, 86528)             0         
_________________________________________________________________
dense_1 (Dense)              (None, 64)                5537856   
_________________________________________________________________
dropout_4 (Dropout)          (None, 64)                0         
_________________________________________________________________
dense_2 (Dense)              (None, 1)                 65        
=================================================================
Total params: 5,668,097
Trainable params: 5,668,097
Non-trainable params: 0
_________________________________________________________________
Found 193 images belonging to 2 classes.
Found 65 images belonging to 2 classes.
Epoch 1/100
1/8 [==>...........................] - ETA: 1:13 - loss: 0.6980 - accuracy: 0.4688
…
