Model: "sequential_1"
_________________________________________________________________
Layer (type)                 Output Shape              Param #   
=================================================================
conv2d_1 (Conv2D)            (None, 498, 498, 32)      320       
_________________________________________________________________
max_pooling2d_1 (MaxPooling2 (None, 249, 249, 32)      0         
_________________________________________________________________
conv2d_2 (Conv2D)            (None, 247, 247, 32)      9248      
_________________________________________________________________
max_pooling2d_2 (MaxPooling2 (None, 123, 123, 32)      0         
_________________________________________________________________
conv2d_3 (Conv2D)            (None, 121, 121, 32)      9248      
_________________________________________________________________
max_pooling2d_3 (MaxPooling2 (None, 60, 60, 32)        0         
_________________________________________________________________
conv2d_4 (Conv2D)            (None, 58, 58, 64)        18496     
_________________________________________________________________
max_pooling2d_4 (MaxPooling2 (None, 29, 29, 64)        0         
_________________________________________________________________
conv2d_5 (Conv2D)            (None, 27, 27, 64)        36928     
_________________________________________________________________
max_pooling2d_5 (MaxPooling2 (None, 13, 13, 64)        0         
_________________________________________________________________
flatten_1 (Flatten)          (None, 10816)             0         
_________________________________________________________________
dense_1 (Dense)              (None, 128)               1384576   
_________________________________________________________________
dense_2 (Dense)              (None, 64)                8256      
_________________________________________________________________
dense_3 (Dense)              (None, 1)                 65        
=================================================================
Total params: 1,467,137
Trainable params: 1,467,137
Non-trainable params: 0
_________________________________________________________________
Found 339 images belonging to 2 classes.
Found 114 images belonging to 2 classes.
{0: 0.8188405797101449, 1: 1.2840909090909092}
Epoch 1/25
 1/22 [>.............................] - E
…
