Model: "sequential_1"
_________________________________________________________________
Layer (type)                 Output Shape              Param #   
=================================================================
conv2d_1 (Conv2D)            (None, 498, 498, 32)      320       
_________________________________________________________________
conv2d_2 (Conv2D)            (None, 496, 496, 64)      18496     
_________________________________________________________________
max_pooling2d_1 (MaxPooling2 (None, 248, 248, 64)      0         
_________________________________________________________________
dropout_1 (Dropout)          (None, 248, 248, 64)      0         
_________________________________________________________________
conv2d_3 (Conv2D)            (None, 246, 246, 64)      36928     
_________________________________________________________________
max_pooling2d_2 (MaxPooling2 (None, 123, 123, 64)      0         
_________________________________________________________________
dropout_2 (Dropout)          (None, 123, 123, 64)      0         
_________________________________________________________________
conv2d_4 (Conv2D)            (None, 121, 121, 128)     73856     
_________________________________________________________________
max_pooling2d_3 (MaxPooling2 (None, 60, 60, 128)       0         
_________________________________________________________________
dropout_3 (Dropout)          (None, 60, 60, 128)       0         
_________________________________________________________________
flatten_1 (Flatten)          (None, 460800)            0         
_________________________________________________________________
dense_1 (Dense)              (None, 64)                29491264  
_________________________________________________________________
dropout_4 (Dropout)          (None, 64)                0         
_________________________________________________________________
dense_2 (Dense)              (None, 1)                 65        
=================================================================
Total params: 29,620,929
Trainable params: 29,620,929
Non-trainable params: 0
_________________________________________________________________
Found 339 images belonging to 2 classes.
Found 114 images belonging to 2 classes.
{0: 0.8188405797101449, 1: 1.2840909090909092}
Epoch 1/100
 1/29 [>.............................] 
…
