Model: "sequential_2"
_________________________________________________________________
Layer (type)                 Output Shape              Param #   
=================================================================
conv2d_5 (Conv2D)            (None, 222, 222, 32)      896       
_________________________________________________________________
conv2d_6 (Conv2D)            (None, 220, 220, 64)      18496     
_________________________________________________________________
max_pooling2d_4 (MaxPooling2 (None, 110, 110, 64)      0         
_________________________________________________________________
dropout_5 (Dropout)          (None, 110, 110, 64)      0         
_________________________________________________________________
conv2d_7 (Conv2D)            (None, 108, 108, 64)      36928     
_________________________________________________________________
max_pooling2d_5 (MaxPooling2 (None, 54, 54, 64)        0         
_________________________________________________________________
dropout_6 (Dropout)          (None, 54, 54, 64)        0         
_________________________________________________________________
conv2d_8 (Conv2D)            (None, 52, 52, 128)       73856     
_________________________________________________________________
max_pooling2d_6 (MaxPooling2 (None, 26, 26, 128)       0         
_________________________________________________________________
dropout_7 (Dropout)          (None, 26, 26, 128)       0         
_________________________________________________________________
flatten_2 (Flatten)          (None, 86528)             0         
_________________________________________________________________
dense_3 (Dense)              (None, 64)                5537856   
_________________________________________________________________
dropout_8 (Dropout)          (None, 64)                0         
_________________________________________________________________
dense_4 (Dense)              (None, 1)                 65        
=================================================================
Total params: 5,668,097
Trainable params: 5,668,097
Non-trainable params: 0
_________________________________________________________________
Found 146 images belonging to 2 classes.
Found 49 images belonging to 2 classes.
Found 146 images belonging to 2 classes.
Found 49 images belonging to 2 classes.
Epoch 1/20
1/8 [==>.
…
